cifar_net.pth (torch, 250887 bytes, 10 tensors)

conv1.weight f4 [6, 3, 5, 5]
0	0xbbcaf42e	-0.0061936593
1	0xbe0564b9	-0.13026704
2	0xbe577cad	-0.21043654
3	0x3dbd98ed	0.09257684
4	0x3ebe0ea1	0.37120536
5	0xbe0fcc3d	-0.14042754
6	0x3e00c8e9	0.12576641
7	0xbe0742ff	-0.1320915
8	0xbe8d3192	-0.27576882
9	0x3de7e884	0.11323646
10	0xbe72b352	-0.23701218
11	0x3e69a116	0.22815356
12	0x3e23f2c4	0.16010576
13	0xbead2f0b	-0.33824953
14	0xbddfec8a	-0.10933788
15	0x3dcc1fa4	0.099669725
16	0x3e721b1f	0.23643158
17	0xbc8071dc	-0.015679292
18	0xbe82d7b8	-0.25555205
19	0xbe83144a	-0.25601417
20	0x3d9993be	0.07498883
21	0x3e1aaf94	0.1510604
22	0xbe674fee	-0.22589085
23	0xbe8aab6a	-0.27083904
24	0x3e0acc90	0.13554597
25	0x3d729121	0.059220437
26	0x3e7657da	0.2405695
27	0xbc7aa7d8	-0.015298806
28	0xbdd44125	-0.10363988
29	0x3e250633	0.16115646
30	0x3d76b0e8	0.060227305
31	0x3ecac236	0.39601296
32	0x3dc8f3a3	0.09812095
33	0xbe836645	-0.25663963
34	0x3e0940de	0.13403651
35	0xba1b10cd	-0.0005915284
36	0x3eb16e3b	0.34654412
37	0x3eba4d87	0.36387274
38	0xbea542d0	-0.32277536
39	0xbe600af4	-0.21879178
40	0x3e783de5	0.24242361
41	0x3ee20400	0.44143677
42	0x3db64a2e	0.089008674
43	0xbe698431	-0.22804333
44	0xbe05accf	-0.13054202
45	0x3e5240b5	0.20532496
46	0x3e090105	0.13379295
47	0xbc68bc50	-0.014205053
48	0xbe3e14bf	-0.18562602
49	0x3e2abab9	0.16672792
50	0x3c7261c1	0.014793814
51	0xbdbe53fe	-0.09293364
52	0xbe6eb48f	-0.23311065
53	0xbe56bf3a	-0.20971385
54	0x3e233142	0.15936759
55	0xbdf636a3	-0.1202214
56	0x3e81c1e9	0.25343254
57	0xbdcc1094	-0.099640995
58	0xbe7ba10c	-0.24573153
59	0x3b3097fa	0.0026946054
60	0x3d42c6f8	0.047553033
61	0x3e1c22c6	0.1524764
62	0x3e6bdf3e	0.23034379
63	0xbea2574a	-0.3170722
64	0xbec65d19	-0.38742903
65	0x3d4452d7	0.047930565
66	0x3e6b2e78	0.22966945
67	0x3da8c17e	0.08240031
68	0xbe9f110c	-0.31067693
69	0xbe9ac860	-0.30231
70	0x3e362ed7	0.17791305
71	0x3e51b31c	0.20478481
72	0xbdcccee2	-0.10000397
73	0xbe918c92	-0.2842756
74	0xbc7e4a75	-0.015520682
75	0x3e16b189	0.14716162
76	0x3dd8d7cb	0.10588034
77	0x3e3ac8d3	0.18240671
78	0x3cd37246	0.025811326
79	0xbd5feb4c	-0.054667756
80	0x3d455d1f	0.04818451
81	0x3e090bf5	0.13383467
82	0x3e269452	0.16267517
83	0x3de104b8	0.10987228
84	0x3deb1978	0.11479467
85	0x3c90bb1d	0.017667348
86	0x3d7221bc	0.059114203
87	0x3e504e1c	0.20342296
88	0x3d6266d4	0.055273846
89	0xbbda9f41	-0.0066718166
90	0x3b1e2911	0.0024133364
91	0xbbdc0bdb	-0.0067152805
92	0xbd004cd5	-0.031323273
93	0x3e0e51e1	0.13898422
94	0x3e1f1bea	0.15537992
95	0x3ccad5ff	0.024760244
96	0x3dca747c	0.09885499
97	0xbcbf9a4e	-0.023389008
98	0x3d0c943c	0.034321055
99	0x3df69cf1	0.12041653
100	0x3ba7facf	0.0051263343
101	0x3e64c67d	0.22341342
102	0x3e03003e	0.12793061
103	0x3db6af69	0.089201756
104	0xbe2475cb	-0.1606056
105	0xbcc3469d	-0.023837382
106	0x3e23d3c6	0.15998754
107	0x3e159eb4	0.14611322
108	0x3da02bf4	0.078208834
109	0x3d17767d	0.036978234
110	0xbe0a5a04	-0.135109
111	0x3d31ee19	0.04343996
112	0xbd1aa10c	-0.037751243
113	0x3ab3e2ed	0.0013724245
114	0x3d37a36b	0.044833582
115	0xbe37c055	-0.17944463
116	0xbdd75da8	-0.105159104
117	0xbd9bff57	-0.076170616
118	0xbe1d5bc8	-0.15367043
119	0xbdfa01d9	-0.12207384
120	0xbe257bd2	-0.16160515
121	0xbe1b2a93	-0.1515296
122	0xbdc64e25	-0.09682874
123	0xbde5d162	-0.11221577
124	0xbe2b0b41	-0.16703512
125	0x3e45c9d9	0.1931528
126	0x3e93a081	0.28833392
127	0x3e4309a9	0.19046654
128	0x3e164970	0.14676452
129	0x3dea4685	0.11439232
130	0x3e03874f	0.12844585
131	0x3dbcfd99	0.092280574
132	0x3e2e4d57	0.1702169
133	0x3e177591	0.14790942
134	0x3d920845	0.071304835
135	0x3debb7a1	0.11509634
136	0x3da2a861	0.07942272
137	0xbdac8a80	-0.08424854
138	0x3bc65bae	0.0060534095
139	0xbe02d986	-0.12778291
140	0xbca7fbde	-0.020505842
141	0xbd6c8d59	-0.057751987
142	0x3c81931c	0.015817218
143	0x3d0f0701	0.03491879
144	0xbe040a59	-0.12894572
145	0xbdeac5d8	-0.11463517
146	0xbe2a7d0e	-0.16649267
147	0xbd93d284	-0.07217887
148	0xbc9aebd6	-0.018911283
149	0xbe5bbb62	-0.214582
150	0xbe4445db	-0.19167273
151	0xbe3f3a19	-0.18674506
152	0xbdb64523	-0.088999055
153	0xbd94a958	-0.07258862
154	0xbd31d627	-0.043417122
155	0xbe7a14d6	-0.24422011
156	0xbea217eb	-0.31658873
157	0xbe309f6f	-0.17248319
158	0xbe5b76f2	-0.21432093
159	0xbe420e6a	-0.18950811
160	0xbde602cc	-0.11231002
161	0xbd61a837	-0.055092063
162	0xbddd8a23	-0.10817363
163	0xbe0bfa76	-0.13669762
164	0xbe06b733	-0.13155822
165	0xbe00c5af	-0.1257541
166	0xbe83602b	-0.25659308
167	0xbe90420d	-0.28175393
168	0xbe816d41	-0.25278667
169	0xbe2ed2ed	-0.1707265
170	0xbeb11ef0	-0.34593916
171	0xbe344556	-0.17604575
172	0xbe9c5ea2	-0.3054095
173	0xbe859933	-0.26093444
174	0xbea8b21f	-0.32948396
175	0xbc834e56	-0.016028564
176	0xbc73253d	-0.014840421
177	0xbcb5289b	-0.022114089
178	0xbda8aaa8	-0.08235675
179	0xbc859413	-0.016305959
180	0xbd6457ba	-0.055747725
181	0x3ca923a6	0.020646881
182	0xbce15946	-0.02750839
183	0xbd00684b	-0.03134946
184	0xbd1cfe1c	-0.038328275
185	0x3e515ee7	0.20446359
186	0x3e8bfda7	0.2734196
187	0x3dbbd97a	0.0917234
188	0x3e09bcb6	0.13450894
189	0x3d19a66f	0.03751224
190	0x3e18d3d1	0.14924552
191	0x3e3052d8	0.17219102
192	0x3e5da9e4	0.2164684
193	0x3dcfc649	0.10145242
194	0xbcdfaa27	-0.027302815
195	0xbe4b860c	-0.19875354
196	0xbd955127	-0.07290869
197	0x3d4165f5	0.047216374
198	0x3d2eca89	0.04267362
199	0xbd92c287	-0.071660094
200	0x3e4cd5f1	0.20003487
201	0xbd3867db	-0.04502092
202	0xbdb24bd5	-0.0870587
203	0xbd1765fe	-0.0369625
204	0xbdbded59	-0.09273786
205	0x3e92a165	0.2863876
206	0x3e89e859	0.2693508
207	0x3c188f27	0.009311474
208	0x3d76a32e	0.060214214
209	0x3d3686de	0.044562213
210	0x3e9db50e	0.30802196
211	0x3e9042ec	0.28176057
212	0x3ea8a2c6	0.32936686
213	0x3e638dfc	0.22222131
214	0x3e3b48dc	0.18289512
215	0x3e732c6f	0.23747419
216	0x3e9ac278	0.30226493
217	0x3eb6ea37	0.35725567
218	0x3ea10b5c	0.3145398
219	0x3e443773	0.19161777
220	0x3e313891	0.17306735
221	0x3e794af4	0.24344999
222	0x3d81f4be	0.06345509
223	0x3d1cb974	0.0382628
224	0x3d4daa28	0.0502111
225	0x3db0483d	0.08607528
226	0x3de28490	0.110604405
227	0x3e6baf6b	0.23016135
228	0x3ec0df2a	0.3767026
229	0x3e242c42	0.16032508
230	0x3b99f6ff	0.0046986337
231	0xbd96e514	-0.07367912
232	0x3e75462f	0.23952554
233	0x3ebb78e6	0.36615676
234	0x3e559379	0.20857038
235	0xbd122fa7	-0.035689976
236	0xbd0351ee	-0.032060556
237	0xbdb4feb8	-0.08837646
238	0x3e431e08	0.19054425
239	0x3def3888	0.11680704
240	0x3d0dcd29	0.034619484
241	0x3e04f886	0.12985429
242	0x3c44b4df	0.012006014
243	0xbb9384ca	-0.0045019137
244	0x3ca3f6a6	0.020015072
245	0xbdc9b24e	-0.09848462
246	0x3d3f0016	0.04663094
247	0xbd4cb1fb	-0.049974423
248	0xbe355d8d	-0.17711468
249	0xbe5a663c	-0.21328062
250	0xbe8bdb76	-0.27315873
251	0xbeb79115	-0.35852876
252	0xbd71d9aa	-0.05904547
253	0xbdadc715	-0.084852375
254	0xbe733948	-0.2375232
255	0xbe933fc4	-0.28759587

conv1.bias f4 [6]
0	0x3e1f906c	0.15582436
1	0xbe482cc4	-0.19548327
2	0x3ec53d3c	0.3852328
3	0xbe99cbd9	-0.30038336
4	0xbef2ebed	-0.47445622
5	0xbe9a9818	-0.30194163

conv2.weight f4 [16, 6, 5, 5]
0	0xbd4560da	-0.048188068
1	0x3e47ba6a	0.19504705
2	0xbd1afe4f	-0.037840184
3	0x3c9a66fa	0.018847931
4	0x3edfccee	0.43711036
5	0xbe384203	-0.17993931
6	0x3e1e2881	0.15445139
7	0xbd33b278	-0.043871373
8	0x3cd097fa	0.025463093
9	0x3e125f96	0.14294276
10	0xbc755444	-0.014973704
11	0xbd6f096c	-0.058358595
12	0x3d6d050c	0.05786614
13	0xbcd3d130	-0.025856584
14	0x3da5a448	0.08087975
15	0xbd0f6bc6	-0.03501489
16	0xbe78f6a9	-0.24312843
17	0x3d300b4c	0.042979524
18	0xbe1f6ebd	-0.15569587
19	0xbe10f93b	-0.14157574
20	0xbceedddd	-0.029158527
21	0xbe2ecb9a	-0.17069855
22	0x3b1a1ddb	0.002351633
23	0xbe2bb729	-0.16769089
24	0xbe93c4cb	-0.2886108
25	0xbe277449	-0.16352953
26	0xbdbca5be	-0.092113
27	0xbe05957e	-0.13045308
28	0xbdd9dd06	-0.1063786
29	0xbcb4b511	-0.022058995
30	0xbdf4a49e	-0.11945461
31	0xbd0c4bcb	-0.03425197
32	0xbdab6b50	-0.083700776
33	0xbd92ccb6	-0.07167952
34	0xbdf523d5	-0.11969725
35	0xbdb5546b	-0.08853992
36	0x3a714b9b	0.00092046865
37	0xbe184994	-0.14871818
38	0xbdcac772	-0.099013224
39	0xbd1ce449	-0.038303647
40	0xbe398943	-0.18118767
41	0xbde791a2	-0.11307074
42	0x3c357987	0.011076338
43	0x3d1fca45	0.03901126
44	0x3cd86a2c	0.026417814
45	0x3d1b9091	0.037979666
46	0x3cc6a812	0.024250064
47	0x3d5486db	0.05188642
48	0x3cd9114e	0.02649751
49	0x3d7a3305	0.061083812
50	0x3e70f6be	0.23531625
51	0x3e27ec77	0.16398798
52	0xbb944eac	-0.00452598
53	0xbd51c893	-0.051216673
54	0xbdc9efc6	-0.09860186
55	0x3bd5bec0	0.0065229833
56	0x3cd1556d	0.02555343
57	0x3cbecf6b	0.023292264
58	0xbe4147d1	-0.18875052
59	0xbe8357ec	-0.25653017
60	0x3e2c68c8	0.16836846
61	0x3e05546c	0.13020486
62	0x3d9f78dd	0.07786725
63	0xbdb14e6b	-0.08657535
64	0xbe089095	-0.13336404
65	0x3e46f9c2	0.19431213
66	0xbc36ee73	-0.011165249
67	0x3dd03977	0.101672105
68	0x3ca027b2	0.019550178
69	0xbe8c6213	-0.27418575
70	0x3d460670	0.048345983
71	0xbd98e60b	-0.07465752
72	0xbd7bc2f7	-0.06146523
73	0xbddff863	-0.10936048
74	0xbeb52b06	-0.35384387
75	0x3e247f56	0.160642
76	0x3e35a057	0.17736946
77	0xbd1c7a47	-0.03820255
78	0x3d7a3037	0.061081138
79	0x3e6e025f	0.23243092
80	0x3dc55189	0.09634692
81	0xba94ad89	-0.0011343221
82	0x3d5e4af0	0.054270685
83	0xbcba4bcd	-0.022741223
84	0xbd056c8f	-0.032574233
85	0x3db174d7	0.086648636
86	0xbcb87746	-0.022517812
87	0x3da721b5	0.08160726
88	0xbd4c69f5	-0.049905736
89	0xbd921f16	-0.071348354
90	0xbc9bc745	-0.019015918
91	0xbd87cad3	-0.066304825
92	0x3da75ef1	0.081724055
93	0x3caf35ed	0.021388019
94	0xbd2d0213	-0.042238306
95	0xbdd6472a	-0.10462792
96	0xbd6dc033	-0.058044624
97	0xbdddbf95	-0.10827557
98	0xbdf63ef7	-0.12023728
99	0xbdf38d2a	-0.11892159
100	0xbceedb2a	-0.02915724
101	0xbd774fe6	-0.06037893
102	0xbd99b965	-0.07506064
103	0x3d1e54b6	0.038655005
104	0xbdb246ba	-0.08704896
105	0x3dc2d788	0.095137656
106	0xbd03ed2c	-0.032208607
107	0xbd085f62	-0.03329409
108	0x3d1c538a	0.038165607
109	0xbe04fbd6	-0.12986693
110	0x3d4e2c45	0.050335187
111	0xbd97fa70	-0.07420814
112	0xbd2989ba	-0.041391112
113	0xbd6083be	-0.05481314
114	0x3bdc2782	0.006718577
115	0xbbc5cefb	-0.006036637
116	0x3db62152	0.08893074
117	0x3dd38362	0.10327794
118	0xbd29ebab	-0.041484516
119	0x3cc4cc0b	0.024023077
120	0x3da9485a	0.08265753
121	0x3d5a06fe	0.053229325
122	0x3dad096b	0.08449062
123	0x3d9d9337	0.07694095
124	0xbdd21fa8	-0.10259944
125	0x3daf70bf	0.085664265
126	0xbd3ce65e	-0.046118133
127	0x3d5dedd7	0.0541819
128	0xbcae0dfc	-0.021246903
129	0x3dd0d841	0.10197497
130	0x3e011c54	0.12608463
131	0x3cfd33e7	0.030908538
132	0x3df5d376	0.120032236
133	0x3e071336	0.13190922
134	0x3d5098cb	0.050926965
135	0x3da3af67	0.0799244
136	0x3d208c16	0.039196096
137	0xbc9c223a	-0.01905929
138	0x3e1ac951	0.15115859
139	0x3e0c4754	0.13699085
140	0x3dab1046	0.08352713
141	0xbdca94fa	-0.09891696
142	0xbd977861	-0.07396007
143	0xbb7b9d33	-0.0038393259
144	0x3cccdbb7	0.025007112
145	0x3c2789ce	0.010225726
146	0xbe06f5b4	-0.13179666
147	0x3c966ede	0.018363412
148	0x3bd7ab35	0.0065816888
149	0x3d35f249	0.044420514
150	0x3d093002	0.03349305
151	0xbd859127	-0.06521826
152	0xbd452ec9	-0.04814032
153	0xbcc72e47	-0.024314059
154	0xbc3c84f9	-0.0115063125
155	0x3caf6d82	0.021414522
156	0xbe5dcc93	-0.2166007
157	0x3cbc53cc	0.022989176
158	0xbdd918a1	-0.10600401
159	0x3dec31b4	0.115329176
160	0x3cc3a2c4	0.023881324
161	0xbde351b6	-0.110995695
162	0x3bc6da33	0.006068492
163	0xbe04081c	-0.12893718
164	0x3dc0ed84	0.094203025
165	0x3de83ce8	0.11339742
166	0xbbc11666	-0.0058925627
167	0x3dc7acdf	0.097497694
168	0xbd61ea33	-0.05515499
169	0x3d78d0e6	0.060746096
170	0x3c8e9236	0.017403703
171	0xbda9c3c9	-0.08289296
172	0xbdb36d6f	-0.08761107
173	0xbe32091e	-0.1738629
174	0xbdfeda05	-0.12443928
175	0x3c009b19	0.007849478
176	0x3da3231e	0.079656824
177	0x3c968bef	0.018377272
178	0x3cd2df97	0.025741382
179	0xbd9eb7e6	-0.077499196
180	0xbd8c8091	-0.068604596
181	0xbd2da5a1	-0.042394284
182	0xbe017f02	-0.12646106
183	0xbe04fe78	-0.12987697
184	0xbdd8a64d	-0.10578594
185	0x3cd72558	0.026262924
186	0x3cf1d69b	0.029521277
187	0x3d905ada	0.070485786
188	0x3cc0a2a7	0.023515059
189	0xbdd059f4	-0.10173407
190	0xbdf3a01a	-0.11895771
191	0xbd41adb6	-0.047284804
192	0x3d007d2e	0.03136938
193	0x3d0c09d5	0.034189064
194	0xbda2dd67	-0.079523854
195	0x3cc058c0	0.02347982
196	0x3a0645c6	0.00051220914
197	0xbd70c5ce	-0.05878239
198	0xbcbf4d81	-0.023352386
199	0xbc8c191c	-0.017101817
200	0xbe03c01b	-0.12866251
201	0xbc60cbb5	-0.013720443
202	0xbe1d1805	-0.15341194
203	0xbe03cb7b	-0.1287059
204	0xbd5c4f34	-0.05378647
205	0x3ddc3656	0.10752551
206	0x3e2a187b	0.16610901
207	0x3e25026a	0.16114202
208	0x3e2ef3c3	0.17085175
209	0x3e201162	0.15631631
210	0xbdbd4bc3	-0.09242966
211	0x3e19e2fb	0.15027992
212	0x3cb71633	0.022349453
213	0x3d9f930d	0.077917196
214	0x3b2f83ae	0.0026781368
215	0xbd694ad9	-0.056956146
216	0x3c13c87c	0.009019967
217	0x3d8a0cff	0.0674076
218	0xbb5ab056	-0.0033369265
219	0x3d89578f	0.067061536
220	0xbd99d2c0	-0.075109005
221	0xbd3e7616	-0.046499334
222	0xbcca6732	-0.02470741
223	0xbe196e81	-0.1498356
224	0xbd081d55	-0.0332311
225	0x3e0f813e	0.14014146
226	0x3ca349ad	0.019932592
227	0x3d6274ca	0.05528716
228	0x3e1f55b4	0.15560037
229	0x3dffa4c5	0.12482599
230	0xbe0e4637	-0.13893972
231	0xbe4380ad	-0.19092055
232	0xbe31dbc8	-0.17368996
233	0xbdd1f59f	-0.10251927
234	0x3d2b08fc	0.041756615
235	0xbe1e04a2	-0.15431455
236	0xbe7a7613	-0.24459104
237	0xbe84bde7	-0.25926134
238	0xbe50f71d	-0.20406766
239	0xbe643d96	-0.22289118
240	0xbe756695	-0.23964913
241	0xbe23a704	-0.1598168
242	0xbe4dade6	-0.20085868
243	0xbdaf828b	-0.08569821
244	0xbe06866d	-0.13137217
245	0xbdec453e	-0.115366444
246	0xbce8d561	-0.02842206
247	0xbd1ba840	-0.038002253
248	0x3cbc0942	0.022953633
249	0xbd4f62e0	-0.050631404
250	0x3e198eb0	0.14995837
251	0x3d9061b6	0.07049887
252	0x3dc87883	0.09788611
253	0x3dd92465	0.10602645
254	0xbd2f5e20	-0.042814374
255	0x3d1d714f	0.038438138

conv2.bias f4 [16]
0	0xbe0a5726	-0.13509807
1	0xbeb2d141	-0.34925273
2	0x3f71afe0	0.9440899
3	0xbe5d4356	-0.21607718
4	0xbea173f0	-0.31533766
5	0x3ef1e6f3	0.47246513
6	0xbd290d29	-0.041272316
7	0x3f02d4e7	0.51106113
8	0xbeb68d0f	-0.35654494
9	0x3e0d9ec9	0.13830103
10	0xbe5f1d5a	-0.2178854
11	0x3f19b740	0.6004524
12	0xbe10bd14	-0.14134628
13	0x3b81dc53	0.0039630323
14	0x3e03f4c7	0.12886344
15	0xbe907222	-0.28212076

fc1.weight f4 [120, 400]
0	0x3b336f07	0.002737941
1	0xbc2b51d5	-0.010456522
2	0xbbe9bf32	-0.007133388
3	0xb98ce4cc	-0.00026873348
4	0x3cbdc167	0.02316351
5	0x3a46ff2b	0.00075911236
6	0xbdb588c8	-0.088639796
7	0xbda74675	-0.081677355
8	0x3d32ca7a	0.043650128
9	0x3d434f80	0.04768324
10	0x3c958d84	0.018255956
11	0xbc28b11e	-0.010296134
12	0x3bf92de1	0.007604346
13	0xbc973df5	-0.01846216
14	0x3b825150	0.0039769784
15	0x3d17091f	0.036873933
16	0x3c0c5547	0.008565254
17	0xbcf073b5	-0.029352048
18	0x3b5494ed	0.00324374
19	0xbd677e83	-0.056517135
20	0x3ce8433b	0.02835237
21	0x3cff6006	0.031173717
22	0x3d25ad39	0.0404484
23	0x3d855e93	0.06512179
24	0xbb03f50a	-0.0020135068
25	0xbdfbc631	-0.122936614
26	0xbd24a60a	-0.04019741
27	0xbcfb4eaf	-0.030677168
28	0xbd41390d	-0.04717355
29	0xbd91ce87	-0.0711947
30	0xbdc11ee7	-0.09429722
31	0xbd00971d	-0.031394113
32	0xbc16e8c3	-0.009210768
33	0xbdaf3c2b	-0.08556398
34	0xbddb9ade	-0.10722898
35	0xbdaab030	-0.08334386
36	0xbd7b11a0	-0.061296105
37	0xbd288f1b	-0.0411521
38	0xbdefa2b1	-0.11700953
39	0xbe055eac	-0.13024396
40	0xbdfa4f4b	-0.12222155
41	0xbe005d31	-0.1253555
42	0xbd7e43b0	-0.06207627
43	0xbd6ded17	-0.058087435
44	0xbd88dcbb	-0.06682726
45	0xbd0bace9	-0.034100447
46	0x3bef4362	0.007301734
47	0xbcfb936e	-0.030709948
48	0xbdb1aaeb	-0.08675178
49	0xbd4e855f	-0.05042016
50	0x3d08454e	0.03326922
51	0x3d1043c7	0.035220888
52	0x3bf15e71	0.0073659946
53	0xbc1dcc65	-0.009631251
54	0x3d0c2668	0.034216315
55	0xbcaa608f	-0.020797996
56	0x3cfa83d3	0.030580437
57	0x3da51590	0.08060753
58	0x3da41756	0.080122635
59	0x3d4483dc	0.047977313
60	0xbdc56181	-0.09637738
61	0xbb9e3cf5	-0.004829044
62	0x3dcd3ab7	0.100209646
63	0x3de65f45	0.1124864
64	0x39bce88a	0.0003603141
65	0xb8383303	-4.3916527e-05
66	0x3c1e911b	0.0096781505
67	0x3d61792e	0.055047207
68	0x3d30ca67	0.043161776
69	0x3be69278	0.0070365034
70	0xbd99ee6c	-0.075161785
71	0x3d1ba87a	0.03800247
72	0xbc28f774	-0.010312904
73	0x3d416747	0.047217634
74	0xbd71ef41	-0.05906606
75	0x3cc3370d	0.023829961
76	0xbcb89efc	-0.022536747
77	0xbd8426e0	-0.06452727
78	0xbd3fbef9	-0.046812985
79	0x3dfae30e	0.122503385
80	0xbd4c39c4	-0.049859777
81	0x3beaff96	0.0071715815
82	0xbd82d229	-0.06387741
83	0xbd6ed88d	-0.058311988
84	0x3b681be2	0.003541701
85	0xbd1554cb	-0.036457818
86	0x3c2c2f01	0.0105092535
87	0xbd9f3a1b	-0.077747546
88	0xbcaa3ba1	-0.020780386
89	0xbd27ad36	-0.04093667
90	0x3d7ed238	0.0622122
91	0x3d378c31	0.04481143
92	0x3d08b5ba	0.033376433
93	0xbd3795a7	-0.044820454
94	0x3db8b5d4	0.09019056
95	0x3e20aa2d	0.15689917
96	0x3de6e226	0.11273603
97	0x3d830903	0.06398203
98	0x3d540add	0.051768173
99	0xbbb425c4	-0.005497666
100	0x3d2623ce	0.04056149
101	0x3d56e134	0.052460864
102	0x3da42f0f	0.08016788
103	0x3d7f0028	0.06225601
104	0x3c4c9e89	0.01248897
105	0x3de10738	0.10987705
106	0x3d3ad185	0.04560997
107	0xba7b2b7e	-0.0009581371
108	0xbb5d9667	-0.003381157
109	0x3b865a68	0.0041001327
110	0xbb537600	-0.0032266378
111	0xbcf3b439	-0.029749023
112	0xbd6b9706	-0.057517074
113	0xbcfc5d8f	-0.030806331
114	0xbd486020	-0.048919797
115	0xbd3808f1	-0.044930402
116	0xbd4ce46b	-0.050022524
117	0xbe0b1816	-0.13583407
118	0xbd07cf62	-0.03315676
119	0xbdaf15f2	-0.085491076
120	0x3adae0d7	0.0016699088
121	0xbd64ed13	-0.055890154
122	0xbd0a3cde	-0.033749454
123	0xbd1378c0	-0.036003828
124	0xbdab6235	-0.08368341
125	0xbd047e51	-0.032347027
126	0xbd42e0e1	-0.047577742
127	0xbce54104	-0.027985103
128	0xbcd8c731	-0.02646217
129	0x3d0db66e	0.034597807
130	0x3d24332f	0.040087875
131	0xbccf5882	-0.025310759
132	0x3c92c84f	0.01791778
133	0x3b982f44	0.0046443064
134	0xbcf36e86	-0.029715788
135	0x3da70bbe	0.081565365
136	0x3d951947	0.07280212
137	0xbcc92647	-0.024554385
138	0x3c50d871	0.012746916
139	0xbc80634d	-0.01567235
140	0x3c9be63c	0.019030683
141	0xbbe3b5cf	-0.0069491635
142	0xbd3d9ef1	-0.046294156
143	0xbd95ff77	-0.07324117
144	0xbdfc4572	-0.12317933
145	0x3c462cc1	0.012095631
146	0xbdb32582	-0.087473884
147	0xbd97b28c	-0.07407102
148	0xbd712f34	-0.058882907
149	0xbd176a55	-0.03696664
150	0x3d3c99f4	0.04604526
151	0x3cfd317d	0.030907387
152	0x3c7980ca	0.01522846
153	0x3d2f48fe	0.04279422
154	0x3e160b90	0.14652848
155	0x3b3be7be	0.0028672065
156	0xbd24fabf	-0.040278193
157	0xbd3b7b6c	-0.045772
158	0xbcbf77fd	-0.023372645
159	0x3d3ff56d	0.046864916
160	0x3c7e3c6b	0.015517334
161	0xbd6a1e12	-0.057157584
162	0xbd824ec9	-0.06362683
163	0xbd022a95	-0.03177889
164	0x3d54fa70	0.05199665
165	0x3c293eab	0.010329883
166	0xbdac2bf1	-0.08406819
167	0xbdd82b66	-0.105551526
168	0xbda31e46	-0.079647586
169	0x3d7afe5f	0.061277743
170	0x3d58e21f	0.05295002
171	0x3d81d931	0.06340254
172	0xbd02dac5	-0.031946916
173	0x3d91ce3e	0.07119416
174	0x3d92d1eb	0.07168945
175	0x3c297a94	0.010344166
176	0x3d2719fc	0.040796265
177	0x3d4422df	0.04788482
178	0x3d7964e2	0.060887225
179	0x3ce0e4a7	0.02745278
180	0x3bb5d321	0.00554885
181	0x3d97698c	0.07393178
182	0x3c673469	0.014111617
183	0x3d882fa5	0.066497125
184	0x3b366170	0.0027829073
185	0x3bf9e534	0.0076262
186	0xbc4f19ef	-0.01264046
187	0x3d43f0c3	0.04783703
188	0x3da1f607	0.07908254
189	0x3d9e5310	0.07730687
190	0x3c7a36e4	0.015271876
191	0xbde2fa6f	-0.11082923
192	0xbdc1e10f	-0.09466755
193	0xbd72bd70	-0.059262693
194	0x3cd01fcc	0.025405787
195	0xbe0226df	-0.1271014
196	0xbd713d91	-0.058896605
197	0xbd43253d	-0.047642935
198	0xbda7e0df	-0.08197188
199	0xbd30548e	-0.043049388
200	0xbc2abfd6	-0.010421714
201	0x3d09fa7b	0.033686142
202	0xbceab5a7	-0.028651072
203	0x3d20279b	0.03910027
204	0x3da4d592	0.08048548
205	0xbd5008a3	-0.050789487
206	0xbe18b35c	-0.1491217
207	0xbd8ade43	-0.06780674
208	0xbd1942e1	-0.037417296
209	0x3d48ff87	0.049071815
210	0xbd2f1028	-0.042740017
211	0xbd580059	-0.052734707
212	0x3c3a8eef	0.011386617
213	0x3c0cf39f	0.008603006
214	0x3daa00c6	0.08300929
215	0xbdb7cb86	-0.08974366
216	0xbbe12c79	-0.0068717566
217	0xbb018aad	-0.0019766495
218	0x3d34b3ea	0.044116892
219	0x3d81145c	0.06302711
220	0xbdbd59b1	-0.09245623
221	0x3bc6cbf9	0.006066796
222	0x3ccf836f	0.025331227
223	0x3cab2ca8	0.020895317
224	0xbc57a62d	-0.013162178
225	0x3d9a9d49	0.07549531
226	0xbbe34621	-0.0069358503
227	0x3d7a0f45	0.06104972
228	0x3d6bc368	0.0575594
229	0x3d89c00b	0.067260824
230	0x3df7c42f	0.12097966
231	0x3d9598ad	0.07304511
232	0xbd3a01b4	-0.04541178
233	0xbcc70262	-0.024293128
234	0x3df3aa99	0.11897773
235	0x3e2165b6	0.15761456
236	0x3cc9a1da	0.02461331
237	0xbdafb9b2	-0.085803404
238	0x3db76f7f	0.08956813
239	0x3dceff91	0.10107339
240	0x3db799b5	0.08964864
241	0x3c16bf13	0.009200829
242	0x3cb65d16	0.022261184
243	0xbccc69de	-0.024952825
244	0x3d80d144	0.06289914
245	0x3ccbd987	0.024883999
246	0x3d2531a1	0.040330533
247	0xbc79a971	-0.015238152
248	0x3da593bd	0.080848195
249	0x3dbde110	0.09271443
250	0xbd1843a7	-0.037173893
251	0xbd1d9609	-0.038473163
252	0xbd120e93	-0.03565843
253	0x3d30a277	0.04312369
254	0x3cbb5993	0.02286986
255	0x3b5cd950	0.0033698864

fc1.bias f4 [120]
0	0x3e42f232	0.19037703
1	0xbd4a4a12	-0.049387045
2	0x3d1bb0a2	0.038010247
3	0x3d151305	0.03639509
4	0x3a24c595	0.00062855455
5	0x3d74b9b1	0.0597474
6	0xbc80205a	-0.015640426
7	0xbe464cd8	-0.19365251
8	0x3c261c80	0.010138631
9	0x3d714484	0.058903232
10	0xbc1bf640	-0.00951916
11	0xbd0e0f99	-0.034682844
12	0xbd12da69	-0.035852823
13	0x3d456d06	0.048199676
14	0xbcd577f9	-0.026058184
15	0x3e0cc289	0.13746084
16	0xbce6cefd	-0.028174872
17	0xbd18703a	-0.037216403
18	0x3db0d6d6	0.08634727
19	0xbc465db5	-0.012107302
20	0xbc92c3a7	-0.01791556
21	0x3dc3ddc8	0.09563786
22	0xbd80e1ae	-0.06293045
23	0x3da620a9	0.08111698
24	0xbce1c2d5	-0.027558723
25	0xbcaebd26	-0.021330427
26	0xbd338ff6	-0.043838464
27	0x3dbafcaa	0.09130223
28	0xbd90f29b	-0.07077523
29	0x3dd05037	0.1017155
30	0x3dcc42ed	0.099737026
31	0x3d67a93c	0.05655788
32	0x3afb6bf7	0.0019181956
33	0x3e38dc8a	0.18052879
34	0x3d8007a6	0.06251459
35	0xbc41c017	-0.011825583
36	0x3d7bc282	0.061464794
37	0x3e568074	0.20947438
38	0x3cff46c6	0.031161677
39	0xbc16dc06	-0.009207731
40	0xbc9be722	-0.019031111
41	0x3ceb9563	0.028757757
42	0x3e8344df	0.25638482
43	0x3d8c774b	0.06858691
44	0xbd3972d4	-0.045275524
45	0x3d26a16a	0.04068128
46	0x3dcb173e	0.099165425
47	0x3e439ede	0.19103572
48	0x3de54130	0.11194074
49	0xbd627812	-0.05529029
50	0x3e36fbc6	0.17869481
51	0x3df29918	0.118456066
52	0xbd08f332	-0.033435054
53	0x3c45016e	0.012024267
54	0x3d6c6013	0.05770881
55	0x3e0fe5a1	0.1405244
56	0xbd694a00	-0.056955338
57	0x3dd2e212	0.10297026
58	0xbe611288	-0.21979725
59	0xbe1a6502	-0.15077594
60	0x3d936a2c	0.07197985
61	0x3dd53a0b	0.104114614
62	0x3e056a11	0.13028742
63	0x3c499cb2	0.0123054255
64	0x3d4fb743	0.05071188
65	0x3e1b7181	0.15180017
66	0xbdb7a0c2	-0.08966209
67	0x3d865d3b	0.06560751
68	0x3db2dc13	0.08733382
69	0x3beffccd	0.0073238374
70	0xbc9532b0	-0.018212646
71	0xbc80a61c	-0.015704207
72	0xbb459310	-0.003014747
73	0xbc7fba1f	-0.01560834
74	0xbd066493	-0.03281076
75	0x3d5736a5	0.052542347
76	0x3d011f51	0.031524006
77	0xbc83e94f	-0.016102461
78	0xbc095c2d	-0.008383793
79	0x3d1cb131	0.03825492
80	0xbc2e1f89	-0.010627636
81	0x3d29060e	0.04126554
82	0x3cf12742	0.029437665
83	0xbe26d8eb	-0.16293685
84	0x3ded38df	0.11583113
85	0x3d79e3a1	0.0610081
86	0xbd9150e8	-0.0709551
87	0xbda7dbfd	-0.08196256
88	0x3e542720	0.2071805
89	0x3d4340fb	0.047669392
90	0xbe0d4080	-0.13794136
91	0xbe1997bf	-0.14999293
92	0x3db53505	0.08848003
93	0xbd3e6d91	-0.04649121
94	0xbd0343bf	-0.03204703
95	0x3d32839f	0.043582555
96	0xbccf5980	-0.025311232
97	0xbcc313a4	-0.023813076
98	0xbd01d3d0	-0.03169614
99	0x3be43041	0.00696376
100	0x3db07bc3	0.08617356
101	0xbd42e29c	-0.047579393
102	0xbde1eda9	-0.11031658
103	0xbd07a3b2	-0.033115096
104	0x3dbb6434	0.091499716
105	0x3d1337dd	0.035941947
106	0xba32c5b1	-0.00068196194
107	0x3e16f8b0	0.14743304
108	0x3d447b79	0.047969315
109	0xbd70b979	-0.05877063
110	0x3d48cc0e	0.049022727
111	0x3d273aea	0.04082767
112	0xbc722e85	-0.014781599
113	0xbca98eee	-0.020698037
114	0x3dfd87ea	0.12379439
115	0xbde1dbce	-0.110282525
116	0x3daeff53	0.08544793
117	0xbd4c3aa7	-0.049860623
118	0x3e0b2b3f	0.13590716
119	0x3c483fcd	0.012222243

fc2.weight f4 [84, 120]
0	0x3d19d486	0.037556194
1	0x3d8906fe	0.06690787
2	0xbdebfe55	-0.11523119
3	0xbc456907	-0.012048966
4	0x3c65c898	0.014024876
5	0xbbce2f8b	-0.0062922887
6	0xbda4bc65	-0.08043746
7	0xba87ccc2	-0.0010360705
8	0xbc640c40	-0.013918936
9	0x3cf9e0ba	0.030502666
10	0xbdcff35e	-0.101538405
11	0x3d80153c	0.0625405
12	0xbd3540ab	-0.044251125
13	0xbd99488f	-0.074845426
14	0x3d63a07c	0.05557297
15	0x3d94ac9e	0.072594866
16	0xbda41be5	-0.08013133
17	0x3dd6323b	0.104587995
18	0x3d3626f5	0.044470746
19	0x3c1c557c	0.009541865
20	0x3d6a0e5b	0.057142597
21	0x3d9da952	0.07698311
22	0x3c925bd5	0.017866055
23	0xbd772676	-0.060339414
24	0xbd7fc715	-0.06244572
25	0x3bff959d	0.0077998177
26	0xbad1307d	-0.0015959885
27	0xbbfd1425	-0.0077233487
28	0x3d96c2c2	0.07361366
29	0x3cdb52be	0.026772853
30	0x3c762bce	0.015025092
31	0x3d8e1d65	0.069392
32	0x3aa4e0b4	0.0012579174
33	0xbdce96c8	-0.10087353
34	0xbdd8cb39	-0.10585637
35	0x3dd9f551	0.106424935
36	0x3c297108	0.01034189
37	0xbdc174be	-0.09446095
38	0xbdba6952	-0.091021195
39	0xbd55cd38	-0.052197665
40	0xbdb624c4	-0.08893731
41	0xbdd0925c	-0.10184166
42	0xbccd310a	-0.025047798
43	0x3d45215c	0.048127517
44	0xbd9ec836	-0.07753031
45	0xbc512017	-0.0127639985
46	0xbdd1d78f	-0.10246193
47	0xbdc82ebf	-0.09774541
48	0xbc3450b5	-0.01100557
49	0x3db0f5a9	0.08640606
50	0x3dcbf6c9	0.0995918
51	0x3d44af38	0.048018664
52	0x3dcb7ab4	0.09935513
53	0x3ca3e914	0.020008601
54	0x3d0de218	0.034639448
55	0x3d5cac61	0.05387533
56	0xbb0f618c	-0.002187821
57	0xbd6d343d	-0.057911146
58	0x3d867fa2	0.06567313
59	0x3da74156	0.08166759
60	0xbd78c9b1	-0.060739223
61	0xbce6dd39	-0.028181659
62	0x3c1e3acd	0.009657574
63	0xbdc346b7	-0.09534972
64	0x3b78b827	0.003795156
65	0x3dc409d8	0.0957219
66	0x3dd4625c	0.10370323
67	0xbd4351ca	-0.047685422
68	0xbdac7780	-0.0842123
69	0x3d08aeab	0.0333697
70	0xbbee6b21	-0.0072759544
71	0xbdaa1eff	-0.08306693
72	0xbd72394d	-0.059136678
73	0xbd813410	-0.06308758
74	0x3cad1085	0.021126041
75	0xbe2786f0	-0.16360068
76	0xbcf76e85	-0.030204067
77	0xbc0006cf	-0.007814123
78	0xbd959ecc	-0.07305679
79	0x3d114e08	0.035474807
80	0xbd3f5e3a	-0.04672072
81	0xbd2d6455	-0.042332012
82	0x3d29e040	0.041473627
83	0xbd2722b9	-0.0408046
84	0x3d2bf835	0.041984756
85	0xbd0efe1f	-0.034910318
86	0x3dd5aeba	0.10433717
87	0x3c8c2ace	0.017110255
88	0xbd7f0b05	-0.06226637
89	0x3b705e3b	0.003667726
90	0x3d3da65e	0.04630124
91	0xbda26380	-0.07929134
92	0xbd858c00	-0.065208435
93	0xbd9d4bd4	-0.07680479
94	0xbdaac9ba	-0.083392575
95	0x3db7d9a0	0.089770555
96	0xbcb227d8	-0.021747515
97	0xbdcfb82d	-0.101425506
98	0xbcf6bf45	-0.030120501
99	0xbd440799	-0.04785881
100	0x3d9631a9	0.07333691
101	0x3d5cc458	0.053898185
102	0xbd2a1a73	-0.04152913
103	0xbdc0867b	-0.0940065
104	0x3c9c09f5	0.019047717
105	0xbd10fda4	-0.03539814
106	0xbd24611f	-0.040131684
107	0x3de767d7	0.11299103
108	0xbdc15911	-0.09440816
109	0xbe0e9808	-0.13925183
110	0x3d7249f1	0.059152547
111	0xb7a23183	-1.933496e-05
112	0x3d1dd4ab	0.038532894
113	0xbd63d730	-0.05562514
114	0x3d4a32b6	0.049364768
115	0xbc950b21	-0.018193783
116	0xbd869b7c	-0.06572625
117	0x3cfe3467	0.031030847
118	0xbd9cb1d2	-0.07651104
119	0xbe01ca08	-0.12674725
120	0xbd83093a	-0.06398244
121	0x3c52bf1c	0.012862947
122	0xbd8861be	-0.06659268
123	0xbb247262	-0.0025092592
124	0xbd2788b1	-0.040901843
125	0xbd53ba70	-0.051691473
126	0x3dbf0cb9	0.093285985
127	0xbe04dfdf	-0.12976025
128	0x3de219a9	0.110400505
129	0xbda0184f	-0.078171365
130	0x3e1f4f21	0.15557529
131	0xbd9773ff	-0.073951714
132	0xbd5ae3e6	-0.053439997
133	0x3da3579f	0.07975697
134	0x3c8ed8dd	0.017437393
135	0x3ba06c5b	0.0048957295
136	0xbd8c6685	-0.068554915
137	0xbc1559cc	-0.0091156475
138	0xbd571eb3	-0.05251951
139	0x3c37a805	0.011209493
140	0x3dc731b4	0.09726277
141	0x3e3498a0	0.17636347
142	0xbd83b394	-0.06430736
143	0xbcf124b5	-0.029436449
144	0x3dee44f2	0.11634244
145	0xbdf7e703	-0.12104609
146	0x3d56ef46	0.052474283
147	0x3dbbcf28	0.09170371
148	0xbe2009d0	-0.15628743
149	0xbcd467f7	-0.02592848
150	0x3e29dd5c	0.16588348
151	0xbc8d70d3	-0.017265713
152	0xbd8b14e1	-0.06791092
153	0x3cd2cbfd	0.025732035
154	0xbbc5e36b	-0.006039073
155	0xbc034776	-0.008012643
156	0x3dbbe7a7	0.091750436
157	0x3d4f9230	0.050676525
158	0x3cc1662b	0.023608288
159	0xbd379afc	-0.04482554
160	0x3dabee32	0.083950415
161	0xbd1ebf1d	-0.03875648
162	0x3d85dea7	0.06536608
163	0xbd5b3ec1	-0.053526644
164	0xbd20cf21	-0.039260034
165	0x3c2dea26	0.010614907
166	0x3c786165	0.015159939
167	0x3dba5ad5	0.09099356
168	0x3d969919	0.0735342
169	0x3d224bb3	0.039622974
170	0xbdfb1d46	-0.12261443
171	0x3d1f0b0d	0.0388289
172	0x3c153f39	0.009109312
173	0x3bb09419	0.0053887484
174	0x3c50a0bb	0.012733634
175	0x3dd7dc63	0.10540082
176	0x3d98a9e8	0.07454282
177	0xbd35c1d7	-0.044374313
178	0xbd3bcd12	-0.045849867
179	0xbb11fc86	-0.002227576
180	0x3daf5bd6	0.08562438
181	0x3d39a41a	0.045322515
182	0x3d92dc47	0.07170921
183	0xbd0633bb	-0.032764178
184	0x3dd77198	0.10519713
185	0xbc0c3a12	-0.008558767
186	0x3ba5baa7	0.005057651
187	0xbc8ba987	-0.01704861
188	0xbccd9ec7	-0.025100125
189	0xbd84d77c	-0.06486413
190	0xbca8357a	-0.020533312
191	0xbd806295	-0.06268803
192	0x3cdde2f0	0.027085751
193	0x3d9a11c5	0.075229205
194	0x3c84eadf	0.016225277
195	0x3d5b47be	0.053535216
196	0x3d8806fd	0.06641958
197	0xbd4e8443	-0.050419103
198	0xbceff865	-0.029293248
199	0xbcfa230a	-0.030534286
200	0xbd3350e6	-0.043778323
201	0xbd3306d5	-0.043707687
202	0x3cee64f0	0.029100865
203	0xbc3fafa0	-0.011699587
204	0xbd614df1	-0.05500597
205	0x3c837fb3	0.016052103
206	0xbcb1baaf	-0.021695463
207	0xbcbb525a	-0.022866417
208	0x3d86eb41	0.0658784
209	0x3d75d431	0.060016815
210	0x3db98783	0.0905905
211	0xbcada8ea	-0.021198709
212	0xbbc2ee81	-0.005948842
213	0x3d832664	0.06403807
214	0x3dc39f49	0.095518656
215	0xbdd1012a	-0.102053
216	0xbc82a8ec	-0.015949689
217	0xbc024256	-0.007950386
218	0x3d224156	0.03961309
219	0xbdb8a24e	-0.09015332
220	0x3e1085cf	0.14113544
221	0x3dd0eb03	0.10201075
222	0xbcf2f9a3	-0.029660052
223	0xbd867ca7	-0.06566744
224	0xbc0f1407	-0.008732802
225	0x3d12ae3e	0.0358107
226	0x3c987c04	0.018613823
227	0xbdd9b8e0	-0.10630965
228	0x3cd6401b	0.026153615
229	0x3a60e10d	0.0008578457
230	0xbd139ca0	-0.03603804
231	0xbd049023	-0.032364022
232	0x3d91ab53	0.071127556
233	0xbc2922e4	-0.01032326
234	0x3def07d3	0.11671414
235	0xbd3261bf	-0.04355025
236	0xbdb15d67	-0.08660393
237	0x3d528373	0.05139489
238	0x3e13336c	0.14375085
239	0x3d292de5	0.041303534
240	0x3c19314b	0.009350131
241	0x3d94e8c2	0.072709575
242	0x3aa08952	0.0012247956
243	0x3cf461d8	0.029831812
244	0xbcbf12a0	-0.02332431
245	0xbd1edee4	-0.038786784
246	0xbd4631d3	-0.04838736
247	0xbc4391be	-0.011936603
248	0xbddc1ea9	-0.107480355
249	0x3d9e246c	0.07721791
250	0x3d9070a9	0.07052738
251	0xbda60db7	-0.08108085
252	0x3be8947c	0.007097779
253	0x3d9ce264	0.07660368
254	0x3d6761f0	0.056489885
255	0x3d82db07	0.063894324

fc2.bias f4 [84]
0	0xbd3371f4	-0.043809846
1	0x3e3831c3	0.17987733
2	0x3e1aeb73	0.15128879
3	0xbdd1081c	-0.10206625
4	0x3dae3a21	0.08507181
5	0xbdad1cc4	-0.08452752
6	0x3e15f2f5	0.14643462
7	0xbdd68bbf	-0.10475873
8	0xbb09abf1	-0.0021007026
9	0xbe047423	-0.12934928
10	0x3e3129e9	0.17301144
11	0xbd830fbd	-0.06399486
12	0xbd5585f9	-0.05212972
13	0xbceb0962	-0.028690998
14	0x3c370b19	0.0111720795
15	0x3e678eff	0.22613142
16	0xbcbfc537	-0.023409469
17	0x3dd9db18	0.10637492
18	0x3c8c7884	0.01714731
19	0xbd90fda8	-0.07079631
20	0x3e450f2b	0.19244067
21	0x3e3daa87	0.18522082
22	0x3a2d3c9d	0.00066084584
23	0xbd64817b	-0.055787545
24	0x3d0a158c	0.033711955
25	0x3da79eec	0.08184609
26	0x3e2b2ade	0.16715571
27	0xbd0e79f3	-0.03478427
28	0x3d604988	0.054757625
29	0xbd1126f1	-0.035437528
30	0xbdfc1c99	-0.12310142
31	0x3d4febfc	0.05076216
32	0xbe02f892	-0.12790135
33	0x3bf89336	0.0075859083
34	0x3ea1afe0	0.31579494
35	0x3ec44666	0.3833496
36	0xbdc8bd0d	-0.098016836
37	0xbe338e2a	-0.175347
38	0xbd9a6d4d	-0.07540379
39	0x3e15831f	0.146008
40	0xbda268fe	-0.07930182
41	0x3e317f0e	0.17333624
42	0xbd820485	-0.06348518
43	0xbe002fe5	-0.1251827
44	0x3e3d1c13	0.1846774
45	0x3e8af370	0.27138853
46	0xbd8ae1de	-0.06781362
47	0x3dac4bae	0.08412872
48	0x3cb015e0	0.021494806
49	0x3dfe292b	0.12410196
50	0x3eae47d4	0.34039176
51	0x3e6e7608	0.23287213
52	0x3ca0e5c1	0.019640805
53	0xbd821f9b	-0.063536845
54	0x3df41538	0.1191811
55	0xbe40430d	-0.18775578
56	0x3cd6dcdc	0.02622836
57	0x3da5a53c	0.080881566
58	0xbcfbc682	-0.030734304
59	0x3e9fac29	0.31186035
60	0xbcbb4729	-0.02286108
61	0xbd5ce3bf	-0.053928133
62	0xbd37abea	-0.044841684
63	0x3db418e7	0.08793812
64	0x3e55b070	0.20868087
65	0x3e6e3cf6	0.23265442
66	0x3dd99956	0.1062495
67	0xbd02f740	-0.031974077
68	0x3e478939	0.1948594
69	0xbd9fbaa7	-0.07799273
70	0xbdd8757f	-0.105692856
71	0x3d132cab	0.03593127
72	0x3e688024	0.22705132
73	0x3c94a793	0.018146312
74	0xbdc5d18b	-0.09659108
75	0x3dd36d20	0.10323548
76	0x3d940641	0.07227755
77	0x3e2d2997	0.16910397
78	0x3d551b70	0.05202812
79	0x3de350b9	0.11099381
80	0x3deab9a3	0.11461189
81	0xbd159cf6	-0.036526643
82	0xbd7e7a37	-0.062128272
83	0xbd3d9d35	-0.046292502

fc3.weight f4 [10, 84]
0	0xbe76ce29	-0.24102081
1	0x3d94de34	0.072689444
2	0xbe962216	-0.2932288
3	0x3d7e6833	0.06211109
4	0x3d9e9116	0.07742517
5	0x3a49cd95	0.00076981756
6	0xbe44899b	-0.19193117
7	0x3de1bc94	0.110222965
8	0x3dbf0953	0.0932795
9	0x3dff65f8	0.12470621
10	0x3d70d39a	0.05879555
11	0x3d6e6a6a	0.058206953
12	0x3d89d977	0.06730931
13	0x3e1ec1bc	0.15503591
14	0x3e49f29e	0.19721457
15	0x3e2979b3	0.16550331
16	0x3e4c1875	0.19931205
17	0x3d61ec4c	0.05515699
18	0x3d1448af	0.03620213
19	0xbd88c3c1	-0.06677962
20	0x3d7da3da	0.06192384
21	0x3ddd474b	0.10804614
22	0xbd30cbe4	-0.043163195
23	0x3db75b79	0.08952994
24	0x3d3a3958	0.045464844
25	0x3d3f85c2	0.04675842
26	0xbe0774e3	-0.13228182
27	0x3e516832	0.20449904
28	0x3e1a1eff	0.15050887
29	0x3e5983ab	0.21241634
30	0x3e150314	0.14551955
31	0x3b55fa77	0.003265051
32	0xbe056460	-0.13026571
33	0xbdac997b	-0.084277116
34	0x3dad761b	0.084697925
35	0xbe30949a	-0.17244187
36	0x3d69b027	0.057052758
37	0x3d04c8fc	0.032418236
38	0xbd9ddcaa	-0.07708104
39	0x3eb46bd5	0.3523852
40	0xbc7a32ff	-0.0152709475
41	0x3e20d105	0.15704735
42	0xbb746cdd	-0.0037296333
43	0xbd8117da	-0.063033774
44	0x3e025b58	0.12730157
45	0xbbf13ff4	-0.00736236
46	0xbdc8979f	-0.097945444
47	0xbe27c896	-0.16385111
48	0x3c2ec02d	0.010665935
49	0x3e2a415c	0.16626495
50	0xbe2ad20b	-0.16681688
51	0xbd1cb83e	-0.038261645
52	0xbd1e9b0e	-0.03872209
53	0x3d831d49	0.0640207
54	0xbd3e6382	-0.046481617
55	0xbe148ab8	-0.14506042
56	0x3d83b115	0.0643026
57	0x3c64995f	0.013952582
58	0x3d212dc0	0.03935027
59	0xbe13034d	-0.14356728
60	0xbce562ab	-0.02800115
61	0x3db2aa56	0.08723895
62	0xbe70ddf2	-0.23522165
63	0xbe524b95	-0.20536645
64	0x3e1b7b74	0.15183812
65	0xbcc15c07	-0.023603452
66	0xbdd81914	-0.10551658
67	0x3d9f90df	0.07791304
68	0xbe3dfdd8	-0.18553865
69	0x3c3cb2a3	0.0115172
70	0x3e7cb943	0.24680047
71	0x3e5d631d	0.2161984
72	0x3e2ff74e	0.17184183
73	0xbe649112	-0.22320965
74	0xbd7326d0	-0.059363186
75	0x3e4917c3	0.1963797
76	0x3ca0cf9c	0.019630246
77	0x3b7ecf79	0.0038880988
78	0xbc3e318e	-0.011608494
79	0x3e1d5129	0.15362991
80	0xbe5ce7ea	-0.21572843
81	0x3d88513f	0.066561215
82	0xbd081b9a	-0.033229448
83	0xbd43ec63	-0.047832858
84	0xbdd50ad8	-0.10402459
85	0x3e6a13e4	0.2285915
86	0x3df29068	0.118439496
87	0xbd108b28	-0.03528896
88	0x3d10a31f	0.035311814
89	0xbd9eaabc	-0.07747409
90	0xbde5c308	-0.1121884
91	0xbcc94e82	-0.024573568
92	0x3daadf87	0.08343416
93	0x3e26ca12	0.16288021
94	0xbe29e4f3	-0.16591243
95	0x3d260e30	0.040540874
96	0xbd5f74ac	-0.054554626
97	0x3cdeba35	0.0271884
98	0xbd72e3d0	-0.05929929
99	0xbe56fc7b	-0.20994751
100	0x3dd489aa	0.1037782
101	0xbd417ed1	-0.047240082
102	0xbdf39bcc	-0.1189495
103	0x3d496c20	0.04917538
104	0x3e31587a	0.17318907
105	0xbe1060fe	-0.140995
106	0x3ca8c925	0.020603726
107	0x3dd41482	0.10355474
108	0xbe55e037	-0.20886312
109	0x3e3b5e19	0.18297614
110	0xbd77f027	-0.06053176
111	0x3beaa635	0.0071609267
112	0x3d252d51	0.04032642
113	0x3ea3a658	0.31962848
114	0x3e58e552	0.21181229
115	0x3ce7d847	0.028301371
116	0x3e022136	0.12707981
117	0xbd75ddeb	-0.06002609
118	0xbb940195	-0.00451679
119	0xbdcfdc71	-0.10149468
120	0xbdbddfd2	-0.09271206
121	0x3e894326	0.26809043
122	0x3d88e561	0.066843756
123	0x3d5bd5a5	0.053670544
124	0xbdd2b172	-0.10287751
125	0x3ddacad7	0.1068322
126	0xbd5c970d	-0.05385499
127	0x3e2a2aeb	0.16617934
128	0xbe83e63f	-0.257616
129	0xbe7d7e6b	-0.24755256
130	0xbdb132ad	-0.08652244
131	0x3d1204a1	0.035648946
132	0xbe0c970a	-0.13729492
133	0xbde1dd88	-0.11028582
134	0xbe826db9	-0.25474337
135	0xbe32681c	-0.17422527
136	0xbe06b13c	-0.13153547
137	0x3e21a152	0.15784195
138	0xbe5799a5	-0.21054704
139	0x3e3e5d92	0.18590382
140	0xbb20dd01	-0.002454579
141	0xbdaa738d	-0.08322821
142	0xbd8827fc	-0.066482514
143	0xbe374099	-0.17895736
144	0xbba92c7d	-0.005162774
145	0x3dc013f9	0.093788095
146	0xbe0e7150	-0.13910413
147	0xbd555b87	-0.05208924
148	0x3eb0274f	0.3440499
149	0xbe3e1618	-0.18563116
150	0xbe27fff5	-0.16406234
151	0xbe0c74b9	-0.13716401
152	0xbec189a7	-0.37800333
153	0x3d1dd9f8	0.03853795
154	0x3e501dc3	0.20323853
155	0xbce2c4a3	-0.027681654
156	0xbdf150e9	-0.117830105
157	0x3e47452d	0.19459982
158	0x3e2928f0	0.16519523
159	0xbdd23b66	-0.102652356
160	0x3dcdf9f6	0.10057442
161	0x3ea3a4a5	0.3196155
162	0xbcd59af9	-0.026074873
163	0xbe3b2eda	-0.18279591
164	0xbe100e87	-0.14068042
165	0x3da06091	0.078309186
166	0xbda396be	-0.07987736
167	0x3cb95b41	0.022626521
168	0xbd3f36f6	-0.046683274
169	0x3d0376c8	0.0320957
170	0x3d5000fb	0.050782185
171	0xbd0cd4e6	-0.034382723
172	0x3d30c076	0.043152295
173	0x3d8fd12a	0.07022317
174	0xbcf21961	-0.029553117
175	0x3da80637	0.082043104
176	0xbd2ce406	-0.042209648
177	0xbc9eca20	-0.01938349
178	0x3e0dbfcf	0.138427
179	0x3da51ef4	0.080625445
180	0xbd71bf38	-0.05902025
181	0xbd345374	-0.0440249
182	0x3ddf1d91	0.10894311
183	0x3e3e863b	0.18605892
184	0x3de0c9fe	0.10976027
185	0xbdbc9282	-0.09207632
186	0x3c802280	0.01564145
187	0xbd958a8d	-0.07301817
188	0xbde6c167	-0.11267357
189	0x3e2a636f	0.16639493
190	0x3d296548	0.041356355
191	0xbe15dffd	-0.14636226
192	0xbd587c95	-0.052853186
193	0xbe27b1ad	-0.16376372
194	0xbd61eaae	-0.05515545
195	0x3e2b4796	0.16726527
196	0xbdab60de	-0.08368085
197	0xbe05d36e	-0.13068935
198	0x3c7b9bc8	0.015356965
199	0xbda18602	-0.07886888
200	0xbe36838e	-0.17823622
201	0x3d27558f	0.04085308
202	0x3d77a97b	0.060464364
203	0x3e7511e4	0.23932606
204	0x3d6834ae	0.056690864
205	0xbe565749	-0.20931734
206	0x3d950143	0.07275631
207	0xbbbd2816	-0.005772601
208	0x3da35c57	0.07976597
209	0xbd091143	-0.033463728
210	0xbdcb60c8	-0.09930569
211	0xbd97f306	-0.074194
212	0x3ea82c33	0.3284622
213	0x3e9012ee	0.28139442
214	0x3d280e47	0.04102924
215	0xbb31214a	-0.0027027898
216	0x3d830c6c	0.06398854
217	0xbdebbc46	-0.1151052
218	0x3e80b6c3	0.25139436
219	0x3cc134e7	0.023584796
220	0xbdf7ccd3	-0.12099614
221	0xbcbc1dd0	-0.022963434
222	0x3e43e45d	0.19130082
223	0x3dd248ac	0.10267767
224	0x3db0e560	0.086375
225	0xbd7cafcb	-0.061691087
226	0x3c266323	0.010155472
227	0x3cc0119a	0.023445893
228	0xbd9e0519	-0.07715816
229	0xbda788a9	-0.08180363
230	0x3e3cac8f	0.18425201
231	0xbb1a785f	-0.0023570282
232	0xbd877436	-0.06613962
233	0x3d9c2f72	0.07626237
234	0xbd39b802	-0.0453415
235	0xbd64d742	-0.05586935
236	0x3b62b71b	0.0034594003
237	0xbd96ea41	-0.07368899
238	0x3d5d6e6d	0.05406039
239	0x3d22f4ed	0.03978436
240	0xbd7ac3ca	-0.061221875
241	0x3e35c102	0.17749408
242	0x3d580fac	0.05274932
243	0x3e8520ff	0.26001737
244	0xbe2dff5d	-0.16991945
245	0xbe145cbb	-0.14488499
246	0x3dffe15c	0.12494156
247	0xbe294719	-0.16531028
248	0x3d9cc288	0.076542914
249	0xbb7f7457	-0.0038979256
250	0x3d437976	0.047723256
251	0x3c72d0da	0.014820302
252	0xbca22637	-0.019793613
253	0x3ba7445e	0.0051045856
254	0x3d954043	0.072876476
255	0xbc1c5207	-0.009541041

fc3.bias f4 [10]
0	0xbc14b1fc	-0.009075638
1	0xbef7e191	-0.4841428
2	0x3dac854d	0.084238626
3	0x3e52bf5a	0.20580807
4	0x3f074ea0	0.5285435
5	0xbe156c70	-0.14592147
6	0x3e0f6742	0.14004233
7	0xbeb19dfc	-0.34690845
8	0x3f12963f	0.5726051
9	0xbeaddd97	-0.33958122
